__________________________________________________________________________________________________
Layer (type)                    Output Shape         Param #     Connected to                     
==================================================================================================
input_1 (InputLayer)            (None, 768, 768, 3)  0                                            
__________________________________________________________________________________________________
conv2d_1 (Conv2D)               (None, 768, 768, 32) 896         input_1[0][0]                    
__________________________________________________________________________________________________
conv2d_2 (Conv2D)               (None, 768, 768, 32) 9248        conv2d_1[0][0]                   
__________________________________________________________________________________________________
activation_1 (Activation)       (None, 768, 768, 32) 0           conv2d_2[0][0]                   
__________________________________________________________________________________________________
batch_normalization_1 (BatchNor (None, 768, 768, 32) 128         activation_1[0][0]               
__________________________________________________________________________________________________
max_pooling2d_1 (MaxPooling2D)  (None, 384, 384, 32) 0           batch_normalization_1[0][0]      
__________________________________________________________________________________________________
conv2d_3 (Conv2D)               (None, 384, 384, 64) 18496       max_pooling2d_1[0][0]            
__________________________________________________________________________________________________
conv2d_4 (Conv2D)               (None, 384, 384, 64) 36928       conv2d_3[0][0]                   
__________________________________________________________________________________________________
activation_2 (Activation)       (None, 384, 384, 64) 0           conv2d_4[0][0]                   
__________________________________________________________________________________________________
batch_normalization_2 (BatchNor (None, 384, 384, 64) 256         activation_2[0][0]               
__________________________________________________________________________________________________
max_pooling2d_2 (MaxPooling2D)  (None, 192, 192, 64) 0           batch_normalization_2[0][0]      
__________________________________________________________________________________________________
conv2d_5 (Conv2D)               (None, 192, 192, 128 73856       max_pooling2d_2[0][0]            
__________________________________________________________________________________________________
conv2d_6 (Conv2D)               (None, 192, 192, 128 147584      conv2d_5[0][0]                   
…
conv2d_11 (Conv2D)              (None, 192, 192, 128 147584      conv2d_10[0][0]                  
__________________________________________________________________________________________________
activation_5 (Activation)       (None, 192, 192, 128 0           conv2d_11[0][0]                  
__________________________________________________________________________________________________
up_sampling2d_2 (UpSampling2D)  (None, 384, 384, 128 0           activation_5[0][0]               
__________________________________________________________________________________________________
conv2d_12 (Conv2D)              (None, 384, 384, 64) 32832       up_sampling2d_2[0][0]            
__________________________________________________________________________________________________
concatenate_2 (Concatenate)     (None, 384, 384, 128 0           batch_normalization_2[0][0]      
                                                                 conv2d_12[0][0]                  
__________________________________________________________________________________________________
conv2d_13 (Conv2D)              (None, 384, 384, 64) 73792       concatenate_2[0][0]              
__________________________________________________________________________________________________
conv2d_14 (Conv2D)              (None, 384, 384, 64) 36928       conv2d_13[0][0]                  
__________________________________________________________________________________________________
activation_6 (Activation)       (None, 384, 384, 64) 0           conv2d_14[0][0]                  
__________________________________________________________________________________________________
up_sampling2d_3 (UpSampling2D)  (None, 768, 768, 64) 0           activation_6[0][0]               
__________________________________________________________________________________________________
conv2d_15 (Conv2D)              (None, 768, 768, 32) 8224        up_sampling2d_3[0][0]            
__________________________________________________________________________________________________
concatenate_3 (Concatenate)     (None, 768, 768, 64) 0           batch_normalization_1[0][0]      
                                                                 conv2d_15[0][0]                  
__________________________________________________________________________________________________
conv2d_16 (Conv2D)              (None, 768, 768, 32) 18464       concatenate_3[0][0]              
__________________________________________________________________________________________________
conv2d_17 (Conv2D)              (None, 768, 768, 32) 9248        conv2d_16[0][0]                  
__________________________________________________________________________________________________
activation_7 (Activation)       (None, 768, 768, 32) 0           conv2d_17[0][0]                  
__________________________________________________________________________________________________
conv2d_18 (Conv2D)              (None, 768, 768, 1)  33          activation_7[0][0]               
==================================================================================================
Total params: 1,926,497
Trainable params: 1,926,049
Non-trainable params: 448
__________________________________________________________________________________________________
None
Epoch 1/1000
100/100 [==============================] - 196s 2s/step - loss: 0.0410 - val_loss: 0.0596
…
