__________________________________________________________________________________________________
Layer (type)                    Output Shape         Param #     Connected to                     
==================================================================================================
input_1 (InputLayer)            (None, 768, 768, 3)  0                                            
__________________________________________________________________________________________________
conv2d_1 (Conv2D)               (None, 768, 768, 32) 896         input_1[0][0]                    
__________________________________________________________________________________________________
batch_normalization_1 (BatchNor (None, 768, 768, 32) 128         conv2d_1[0][0]                   
__________________________________________________________________________________________________
conv2d_2 (Conv2D)               (None, 768, 768, 32) 9248        batch_normalization_1[0][0]      
__________________________________________________________________________________________________
batch_normalization_2 (BatchNor (None, 768, 768, 32) 128         conv2d_2[0][0]                   
__________________________________________________________________________________________________
max_pooling2d_1 (MaxPooling2D)  (None, 384, 384, 32) 0           batch_normalization_2[0][0]      
__________________________________________________________________________________________________
conv2d_3 (Conv2D)               (None, 384, 384, 64) 18496       max_pooling2d_1[0][0]            
__________________________________________________________________________________________________
batch_normalization_3 (BatchNor (None, 384, 384, 64) 256         conv2d_3[0][0]                   
__________________________________________________________________________________________________
conv2d_4 (Conv2D)               (None, 384, 384, 64) 36928       batch_normalization_3[0][0]      
__________________________________________________________________________________________________
batch_normalization_4 (BatchNor (None, 384, 384, 64) 256         conv2d_4[0][0]                   
__________________________________________________________________________________________________
max_pooling2d_2 (MaxPooling2D)  (None, 192, 192, 64) 0           batch_normalization_4[0][0]      
__________________________________________________________________________________________________
conv2d_5 (Conv2D)               (None, 192, 192, 128 73856       max_pooling2d_2[0][0]            
__________________________________________________________________________________________________
batch_normalization_5 (BatchNor (None, 192, 192, 128 512         conv2d_5[0][0]                   
…
__________________________________________________________________________________________________
up_sampling2d_1 (UpSampling2D)  (None, 384, 384, 128 0           batch_normalization_6[0][0]      
__________________________________________________________________________________________________
concatenate_1 (Concatenate)     (None, 384, 384, 192 0           batch_normalization_4[0][0]      
                                                                 up_sampling2d_1[0][0]            
__________________________________________________________________________________________________
conv2d_7 (Conv2D)               (None, 384, 384, 64) 110656      concatenate_1[0][0]              
__________________________________________________________________________________________________
batch_normalization_7 (BatchNor (None, 384, 384, 64) 256         conv2d_7[0][0]                   
__________________________________________________________________________________________________
conv2d_8 (Conv2D)               (None, 384, 384, 64) 36928       batch_normalization_7[0][0]      
__________________________________________________________________________________________________
batch_normalization_8 (BatchNor (None, 384, 384, 64) 256         conv2d_8[0][0]                   
__________________________________________________________________________________________________
up_sampling2d_2 (UpSampling2D)  (None, 768, 768, 64) 0           batch_normalization_8[0][0]      
__________________________________________________________________________________________________
concatenate_2 (Concatenate)     (None, 768, 768, 96) 0           batch_normalization_2[0][0]      
                                                                 up_sampling2d_2[0][0]            
__________________________________________________________________________________________________
conv2d_9 (Conv2D)               (None, 768, 768, 32) 27680       concatenate_2[0][0]              
__________________________________________________________________________________________________
batch_normalization_9 (BatchNor (None, 768, 768, 32) 128         conv2d_9[0][0]                   
__________________________________________________________________________________________________
conv2d_10 (Conv2D)              (None, 768, 768, 32) 9248        batch_normalization_9[0][0]      
__________________________________________________________________________________________________
batch_normalization_10 (BatchNo (None, 768, 768, 32) 128         conv2d_10[0][0]                  
__________________________________________________________________________________________________
conv2d_11 (Conv2D)              (None, 768, 768, 1)  33          batch_normalization_10[0][0]     
==================================================================================================
Total params: 474,113
Trainable params: 472,833
Non-trainable params: 1,280
__________________________________________________________________________________________________
None
Epoch 1/1000
2018-11-16 10:24:34.870240: W tensorflow/core/common_runtime/bfc_allocator.cc:219] Allocator (GPU_0_bfc) ran out of memory trying to allocate 2.53GiB. The caller indicates that this is not a failure, but may mean that there could be performance gains if more memory were available.
…
