…
physical_device_desc: "device: XLA_CPU device"
, name: "/device:GPU:0"
device_type: "GPU"
memory_limit: 11281553818
locality {
  bus_id: 1
  links {
  }
}
incarnation: 3840738368847657882
physical_device_desc: "device: 0, name: Tesla K80, pci bus id: 0000:00:1e.0, compute capability: 3.7"
]

__________________________________________________________________________________________________
Layer (type)                    Output Shape         Param #     Connected to                     
==================================================================================================
input_1 (InputLayer)            (None, 768, 768, 3)  0                                            
__________________________________________________________________________________________________
conv2d_1 (Conv2D)               (None, 768, 768, 32) 896         input_1[0][0]                    
__________________________________________________________________________________________________
batch_normalization_1 (BatchNor (None, 768, 768, 32) 128         conv2d_1[0][0]                   
__________________________________________________________________________________________________
conv2d_2 (Conv2D)               (None, 768, 768, 32) 9248        batch_normalization_1[0][0]      
__________________________________________________________________________________________________
batch_normalization_2 (BatchNor (None, 768, 768, 32) 128         conv2d_2[0][0]                   
__________________________________________________________________________________________________
max_pooling2d_1 (MaxPooling2D)  (None, 384, 384, 32) 0           batch_normalization_2[0][0]      
__________________________________________________________________________________________________
conv2d_3 (Conv2D)               (None, 384, 384, 64) 18496       max_pooling2d_1[0][0]            
__________________________________________________________________________________________________
batch_normalization_3 (BatchNor (None, 384, 384, 64) 256         conv2d_3[0][0]                   
__________________________________________________________________________________________________
conv2d_4 (Conv2D)               (None, 384, 384, 64) 36928       batch_normalization_3[0][0]      
__________________________________________________________________________________________________
batch_normalization_4 (BatchNor (None, 384, 384, 64) 256         conv2d_4[0][0]                   
__________________________________________________________________________________________________
max_pooling2d_2 (MaxPooling2D)  (None, 192, 192, 64) 0           batch_normalization_4[0][0]      
__________________________________________________________________________________________________
conv2d_5 (Conv2D)               (None, 192, 192, 128 73856       max_pooling2d_2[0][0]            
__________________________________________________________________________________________________
batch_normalization_5 (BatchNor (None, 192, 192, 128 512         conv2d_5[0][0]                   
…
__________________________________________________________________________________________________
up_sampling2d_1 (UpSampling2D)  (None, 384, 384, 128 0           batch_normalization_6[0][0]      
__________________________________________________________________________________________________
concatenate_1 (Concatenate)     (None, 384, 384, 192 0           batch_normalization_4[0][0]      
                                                                 up_sampling2d_1[0][0]            
__________________________________________________________________________________________________
conv2d_7 (Conv2D)               (None, 384, 384, 64) 110656      concatenate_1[0][0]              
__________________________________________________________________________________________________
batch_normalization_7 (BatchNor (None, 384, 384, 64) 256         conv2d_7[0][0]                   
__________________________________________________________________________________________________
conv2d_8 (Conv2D)               (None, 384, 384, 64) 36928       batch_normalization_7[0][0]      
__________________________________________________________________________________________________
batch_normalization_8 (BatchNor (None, 384, 384, 64) 256         conv2d_8[0][0]                   
__________________________________________________________________________________________________
up_sampling2d_2 (UpSampling2D)  (None, 768, 768, 64) 0           batch_normalization_8[0][0]      
__________________________________________________________________________________________________
concatenate_2 (Concatenate)     (None, 768, 768, 96) 0           batch_normalization_2[0][0]      
                                                                 up_sampling2d_2[0][0]            
__________________________________________________________________________________________________
conv2d_9 (Conv2D)               (None, 768, 768, 32) 27680       concatenate_2[0][0]              
__________________________________________________________________________________________________
batch_normalization_9 (BatchNor (None, 768, 768, 32) 128         conv2d_9[0][0]                   
__________________________________________________________________________________________________
conv2d_10 (Conv2D)              (None, 768, 768, 32) 9248        batch_normalization_9[0][0]      
__________________________________________________________________________________________________
batch_normalization_10 (BatchNo (None, 768, 768, 32) 128         conv2d_10[0][0]                  
__________________________________________________________________________________________________
conv2d_11 (Conv2D)              (None, 768, 768, 1)  33          batch_normalization_10[0][0]     
==================================================================================================
Total params: 474,113
Trainable params: 472,833
Non-trainable params: 1,280
__________________________________________________________________________________________________


epoch: 0	loss: -0.300364015115	val_loss: -0.129578726194	lr: 0.001
epoch: 1	loss: -0.327489598632	val_loss: -0.146529755386	lr: 0.001
…
